…
_epochs=3.0, warmup_momentum=0.8, warmup_bias_lr=0.1, box=7.5, cls=0.5, dfl=1.5, pose=12.0, kobj=1.0, label_smoothing=0.0, nbs=64, hsv_h=0.015, hsv_s=0.7, hsv_v=0.4, degrees=0.0, translate=0.1, scale=0.5, shear=0.0, perspective=0.0, flipud=0.0, fliplr=0.5, mosaic=1.0, mixup=0.0, copy_paste=0.0, cfg=None, v5loader=False, tracker=botsort.yaml, myscale=2, save_dir=/home/fn/902wl/wyh/ultralytics/ultralytics/myyolo/runs/detect/train122

                   from  n    params  module                                       arguments                     
  0                  -1  1         0  ultralytics.nn.modules.block.Myget           [0, 0, 0]                     
  1                   0  1         0  ultralytics.nn.modules.block.MyChunk         [0, 2, -1]                    
  2                   0  1         0  ultralytics.nn.modules.block.MyChunk         [1, 2, -1]                    
  3                   1  1      1392  ultralytics.nn.modules.conv.Conv             [3, 48, 3, 2]                 
  4                  -1  1     41664  ultralytics.nn.modules.conv.Conv             [48, 96, 3, 2]                
  5                  -1  2    111360  ultralytics.nn.modules.block.C2f             [96, 96, 2, True]             
  6                  -1  1    166272  ultralytics.nn.modules.conv.Conv             [96, 192, 3, 2]               
  7                  -1  4    813312  ultralytics.nn.modules.block.C2f             [192, 192, 4, True]           
  8                  -1  1    664320  ultralytics.nn.modules.conv.Conv             [192, 384, 3, 2]              
  9                  -1  4   3248640  ultralytics.nn.modules.block.C2f             [384, 384, 4, True]           
 10                  -1  1   1991808  ultralytics.nn.modules.conv.Conv             [384, 576, 3, 2]              
 11                  -1  2   3985920  ultralytics.nn.modules.block.C2f             [576, 576, 2, True]           
 12                  -1  1    831168  ultralytics.nn.modules.block.SPPF            [576, 576, 5]                 
 13                   2  1      1392  ultralytics.nn.modules.conv.Conv             [3, 48, 3, 2]                 
 14                  -1  1     41664  ultralytics.nn.modules.conv.Conv             [48, 96, 3, 2]                
 15                  -1  2    111360  ultralytics.nn.modules.block.C2f             [96, 96, 2, True]             
 16                  -1  1    166272  ultralytics.nn.modules.conv.Conv             [96, 192, 3, 2]               
 17                  -1  4    813312  ultralytics.nn.modules.block.C2f             [192, 192, 4, True]           
 18                  -1  1    664320  ultralytics.nn.modules.conv.Conv             [192, 384, 3, 2]              
 19                  -1  4   3248640  ultralytics.nn.modules.block.C2f             [384, 384, 4, True]           
 20                  -1  1   1991808  ultralytics.nn.modules.conv.Conv             [384, 576, 3, 2]              
 21                  -1  2   3985920  ultralytics.nn.modules.block.C2f             [576, 576, 2, True]           
 22                  -1  1    831168  ultralytics.nn.modules.block.SPPF            [576, 576, 5]                 
 23                  12  1         0  torch.nn.modules.upsampling.Upsample         [None, 2, 'nearest']          
 24             [-1, 9]  1         0  ultralytics.nn.modules.conv.Concat           [1]                           
 25                  -1  2   1993728  ultralytics.nn.modules.block.C2f             [960, 384, 2]                 
 26                  -1  1         0  torch.nn.modules.upsampling.Upsample         [None, 2, 'nearest']          
 27             [-1, 7]  1         0  ultralytics.nn.modules.conv.Concat           [1]                           
 28                  -1  2    517632  ultralytics.nn.modules.block.C2f             [576, 192, 2]                 
 29                  22  1         0  torch.nn.modules.upsampling.Upsample         [None, 2, 'nearest']          
 30            [-1, 19]  1         0  ultralytics.nn.modules.conv.Concat           [1]                           
 31                  -1  2   1993728  ultralytics.nn.modules.block.C2f             [960, 384, 2]                 
 32                  -1  1         0  torch.nn.modules.upsampling.Upsample         [None, 2, 'nearest']          
 33            [-1, 17]  1         0  ultralytics.nn.modules.conv.Concat           [1]                           
 34                  -1  2    517632  ultralytics.nn.modules.block.C2f             [576, 192, 2]                 
 35                  28  1    332160  ultralytics.nn.modules.conv.Conv             [192, 192, 3, 2]              
 36            [-1, 25]  1         0  ultralytics.nn.modules.conv.Concat           [1]                           
 37                  -1  2   1846272  ultralytics.nn.modules.block.C2f             [576, 384, 2]                 
 38                  34  1    332160  ultralytics.nn.modules.conv.Conv             [192, 192, 3, 2]              
 39            [-1, 31]  1         0  ultralytics.nn.modules.conv.Concat           [1]                           
 40                  -1  2   1846272  ultralytics.nn.modules.block.C2f             [576, 384, 2]                 
 41            [-1, 37]  1         0  ultralytics.nn.modules.conv.Concat           [1]                           
 42                  -1  2   1920000  ultralytics.nn.modules.block.C2f             [768, 384, 2]                 
 43                  37  1   1327872  ultralytics.nn.modules.conv.Conv             [384, 384, 3, 2]              
 44            [-1, 12]  1         0  ultralytics.nn.modules.conv.Concat           [1]                           
 45                  -1  2   4207104  ultralytics.nn.modules.block.C2f             [960, 576, 2]                 
 46            [12, 22]  1         0  ultralytics.nn.modules.conv.Concat           [1]                           
 47                  -1  2   4317696  ultralytics.nn.modules.block.C2f             [1152, 576, 2]                
 48                  42  1   1327872  ultralytics.nn.modules.conv.Conv             [384, 384, 3, 2]              
 49            [-1, 47]  1         0  ultralytics.nn.modules.conv.Concat           [1]                           
 50                  -1  2   4207104  ultralytics.nn.modules.block.C2f             [960, 576, 2]                 
 51[28, 34, 37, 42, 45, 50]  1   7558324  ultralytics.nn.modules.head.Detect           [6, [192, 192, 384, 384, 576, 576]]
myYOLOv8_2m summary: 631 layers, 57957268 parameters, 57957252 gradients

[34m[1mAMP: [0mrunning Automatic Mixed Precision (AMP) checks with YOLOv8n...
[34m[1mAMP: [0mchecks passed âœ…
[34m[1moptimizer:[0m SGD(lr=0.01) with parameter groups 166 weight(decay=0.0), 179 weight(decay=0.0005), 178 bias
[34m[1mtrain: [0mScanning /home/fn/902wl/wyh/ultralyt
…
